…
&lt;span class="n"&gt;model&lt;/span&gt;&lt;span class="o"&gt;.&lt;/span&gt;&lt;span class="n"&gt;summary&lt;/span&gt;&lt;span class="p"&gt;()&lt;/span&gt;
&lt;/pre&gt;&lt;/div&gt;

    &lt;/div&gt;
&lt;/div&gt;
&lt;/div&gt;

&lt;div class="output_wrapper"&gt;
&lt;div class="output"&gt;


&lt;div class="output_area"&gt;

    &lt;div class="prompt"&gt;&lt;/div&gt;


&lt;div class="output_subarea output_stream output_stdout output_text"&gt;
&lt;pre&gt;Model: &amp;#34;sequential_1&amp;#34;
_________________________________________________________________
Layer (type)                 Output Shape              Param #   
=================================================================
conv2d_1 (Conv2D)            (None, 126, 126, 32)      896       
_________________________________________________________________
batch_normalization_1 (Batch (None, 126, 126, 32)      128       
_________________________________________________________________
max_pooling2d_1 (MaxPooling2 (None, 63, 63, 32)        0         
_________________________________________________________________
dropout_1 (Dropout)          (None, 63, 63, 32)        0         
_________________________________________________________________
conv2d_2 (Conv2D)            (None, 61, 61, 64)        18496     
_________________________________________________________________
batch_normalization_2 (Batch (None, 61, 61, 64)        256       
_________________________________________________________________
max_pooling2d_2 (MaxPooling2 (None, 30, 30, 64)        0         
_________________________________________________________________
dropout_2 (Dropout)          (None, 30, 30, 64)        0         
_________________________________________________________________
conv2d_3 (Conv2D)            (None, 28, 28, 128)       73856     
_________________________________________________________________
batch_normalization_3 (Batch (None, 28, 28, 128)       512       
_________________________________________________________________
max_pooling2d_3 (MaxPooling2 (None, 14, 14, 128)       0         
_________________________________________________________________
dropout_3 (Dropout)          (None, 14, 14, 128)       0         
_________________________________________________________________
flatten_1 (Flatten)          (None, 25088)             0         
_________________________________________________________________
dense_1 (Dense)              (None, 512)               12845568  
_________________________________________________________________
batch_normalization_4 (Batch (None, 512)               2048      
_________________________________________________________________
dropout_4 (Dropout)          (None, 512)               0         
_________________________________________________________________
dense_2 (Dense)              (None, 2)                 1026      
=================================================================
Total params: 12,942,786
Trainable params: 12,941,314
Non-trainable params: 1,472
_________________________________________________________________
&lt;/pre&gt;
&lt;/div&gt;
&lt;/div&gt;

&lt;/div&gt;
&lt;/div&gt;

&lt;/div&gt;
&lt;div class="cell border-box-sizing text_cell rendered"&gt;&lt;div class="prompt input_prompt"&gt;
…
